# YOLO11-PAS-seg - https://github.com/Anawaert/YOLO11-PAS-seg

# Parameters - 参数
nc: 3  # number of classes - 类别数
scales:
  # [depth, width, max_channels] - 【深度, 宽度, 最大通道数】
  m: [0.50, 1.00, 512] 

# YOLO11-PAS-seg backbone - 主干网络
backbone:
  # [from, repeats, module, args] - [链路上级, 重复次数, 模块名, 构造函数参数]
  - [-1, 1, Conv, [64, 3, 2]] # 0-P1/2
  - [-1, 1, Conv, [128, 3, 2]] # 1-P2/4
  - [-1, 2, C3k2Ghost, [256, False, 0.25]]
  - [-1, 1, Conv, [256, 3, 2]] # 3-P3/8
  - [-1, 2, C3k2Ghost, [512, False, 0.25]]
  - [-1, 1, Conv, [512, 3, 2]] # 5-P4/16
  - [-1, 2, C3k2Ghost, [512, True]]
  - [-1, 1, Conv, [1024, 3, 2]] # 7-P5/32
  - [-1, 2, C3k2Ghost, [1024, True]]
  - [-1, 1, SPPF, [1024, 5]] # 9
  - [-1, 2, C2PSA, [1024]] # 10

# YOLO11-PAS-seg head - 头部
head:
  - [-1, 1, nn.Upsample, [None, 2, "nearest"]]
  - [[-1, 6], 1, Concat, [1]] # cat backbone P4
  - [-1, 2, C3k2Ghost, [512, False]] # 13

  - [-1, 1, nn.Upsample, [None, 2, "nearest"]]
  - [[-1, 4], 1, Concat, [1]] # cat backbone P3
  - [-1, 2, C3k2Ghost, [256, False]] # 16 (P3/8-small)

  - [-1, 1, Conv, [256, 3, 2]]
  - [[-1, 13], 1, Concat, [1]] # cat head P4
  - [-1, 2, C3k2Ghost, [512, False]] # 19 (P4/16-medium)

  - [-1, 1, Conv, [512, 3, 2]]
  - [[-1, 10], 1, Concat, [1]] # cat head P5
  - [-1, 2, C3k2Ghost, [1024, True]] # 22 (P5/32-large)

  - [[16, 19, 22], 1, Segment, [nc, 32, 256]] # Detect(P3, P4, P5)
